UNet(
  (conv0): Conv2d(3, 4, kernel_size=(3, 3), stride=(1, 1), padding=(1, 1))
  (conv1): Conv2d(4, 4, kernel_size=(3, 3), stride=(1, 1), padding=(1, 1))
  (conv2): Conv2d(4, 8, kernel_size=(3, 3), stride=(1, 1), padding=(1, 1))
  (conv3): Conv2d(8, 8, kernel_size=(3, 3), stride=(1, 1), padding=(1, 1))
  (conv4): Conv2d(8, 16, kernel_size=(3, 3), stride=(1, 1), padding=(1, 1))
  (conv5): Conv2d(16, 16, kernel_size=(3, 3), stride=(1, 1), padding=(1, 1))
  (conv6): Conv2d(16, 32, kernel_size=(3, 3), stride=(1, 1), padding=(1, 1))
  (conv7): Conv2d(32, 32, kernel_size=(3, 3), stride=(1, 1), padding=(1, 1))
  (conv8): Conv2d(32, 64, kernel_size=(3, 3), stride=(1, 1), padding=(1, 1))
  (conv9): Conv2d(64, 32, kernel_size=(3, 3), stride=(1, 1), padding=(1, 1))
  (conv10): Conv2d(64, 32, kernel_size=(3, 3), stride=(1, 1), padding=(1, 1))
  (conv11): Conv2d(32, 16, kernel_size=(3, 3), stride=(1, 1), padding=(1, 1))
  (conv12): Conv2d(32, 16, kernel_size=(3, 3), stride=(1, 1), padding=(1, 1))
  (conv13): Conv2d(16, 8, kernel_size=(3, 3), stride=(1, 1), padding=(1, 1))
  (conv14): Conv2d(16, 8, kernel_size=(3, 3), stride=(1, 1), padding=(1, 1))
  (conv15): Conv2d(8, 4, kernel_size=(3, 3), stride=(1, 1), padding=(1, 1))
  (conv16): Conv2d(8, 8, kernel_size=(3, 3), stride=(1, 1), padding=(1, 1))
  (conv17): Conv2d(8, 8, kernel_size=(3, 3), stride=(1, 1), padding=(1, 1))
  (conv18): Conv2d(8, 3, kernel_size=(1, 1), stride=(1, 1))
  (transposed_conv0): ConvTranspose2d(32, 32, kernel_size=(2, 2), stride=(2, 2))
  (transposed_conv1): ConvTranspose2d(16, 16, kernel_size=(2, 2), stride=(2, 2))
  (transposed_conv2): ConvTranspose2d(8, 8, kernel_size=(2, 2), stride=(2, 2))
  (transposed_conv3): ConvTranspose2d(4, 4, kernel_size=(2, 2), stride=(2, 2))
  (relu): ReLU()
  (avg_pool2d): AvgPool2d(kernel_size=2, stride=2, padding=0)
)
name:  conv0.weight
<class 'torch.nn.parameter.Parameter'>
param.shape:  torch.Size([4, 3, 3, 3])
param.requires_grad:  True
=====
name:  conv0.bias
<class 'torch.nn.parameter.Parameter'>
param.shape:  torch.Size([4])
param.requires_grad:  True
=====
name:  conv1.weight
<class 'torch.nn.parameter.Parameter'>
…
